…
-   "execution_count": 16,
-   "id": "b2d36681",
-   "metadata": {
-    "slideshow": {
-     "slide_type": "slide"
-    }
-   },
-   "outputs": [
-    {
-     "data": {
-      "text/plain": [
-       "==========================================================================================\n",
-       "Layer (type:depth-idx)                   Output Shape              Param #\n",
-       "==========================================================================================\n",
-       "Sequential                               --                        --\n",
-       "Sequential: 1-1                        [32, 64, 112, 112]        --\n",
-       "    Conv2d: 2-1                       [32, 64, 224, 224]        640\n",
-       "    ReLU: 2-2                         [32, 64, 224, 224]        --\n",
-       "    MaxPool2d: 2-3                    [32, 64, 112, 112]        --\n",
-       "Sequential: 1-2                        [32, 128, 56, 56]         --\n",
-       "    Conv2d: 2-4                       [32, 128, 112, 112]       73,856\n",
-       "    ReLU: 2-5                         [32, 128, 112, 112]       --\n",
-       "    MaxPool2d: 2-6                    [32, 128, 56, 56]         --\n",
-       "Sequential: 1-3                        [32, 256, 28, 28]         --\n",
-       "    Conv2d: 2-7                       [32, 256, 56, 56]         295,168\n",
-       "    ReLU: 2-8                         [32, 256, 56, 56]         --\n",
-       "    Conv2d: 2-9                       [32, 256, 56, 56]         590,080\n",
-       "    ReLU: 2-10                        [32, 256, 56, 56]         --\n",
-       "    MaxPool2d: 2-11                   [32, 256, 28, 28]         --\n",
-       "Sequential: 1-4                        [32, 512, 14, 14]         --\n",
-       "    Conv2d: 2-12                      [32, 512, 28, 28]         1,180,160\n",
-       "    ReLU: 2-13                        [32, 512, 28, 28]         --\n",
-       "    Conv2d: 2-14                      [32, 512, 28, 28]         2,359,808\n",
-       "    ReLU: 2-15                        [32, 512, 28, 28]         --\n",
-       "    MaxPool2d: 2-16                   [32, 512, 14, 14]         --\n",
-       "Sequential: 1-5                        [32, 512, 7, 7]           --\n",
-       "    Conv2d: 2-17                      [32, 512, 14, 14]         2,359,808\n",
-       "    ReLU: 2-18                        [32, 512, 14, 14]         --\n",
-       "    Conv2d: 2-19                      [32, 512, 14, 14]         2,359,808\n",
-       "    ReLU: 2-20                        [32, 512, 14, 14]         --\n",
-       "    MaxPool2d: 2-21                   [32, 512, 7, 7]           --\n",
-       "Flatten: 1-6                           [32, 25088]               --\n",
-       "Linear: 1-7                            [32, 4096]                102,764,544\n",
-       "ReLU: 1-8                              [32, 4096]                --\n",
-       "Dropout: 1-9                           [32, 4096]                --\n",
-       "Linear: 1-10                           [32, 4096]                16,781,312\n",
-       "ReLU: 1-11                             [32, 4096]                --\n",
-       "Dropout: 1-12                          [32, 4096]                --\n",
-       "Linear: 1-13                           [32, 10]                  40,970\n",
-       "==========================================================================================\n",
-       "Total params: 128,806,154\n",
-       "Trainable params: 128,806,154\n",
-       "Non-trainable params: 0\n",
-       "Total mult-adds (G): 241.75\n",
-       "==========================================================================================\n",
-       "Input size (MB): 6.42\n",
…
-   "execution_count": 7,
-   "id": "fbb9b7b0",
-   "metadata": {
-    "slideshow": {
-     "slide_type": "slide"
-    }
-   },
-   "outputs": [
-    {
-     "data": {
-      "text/plain": [
-       "==========================================================================================\n",
-       "Layer (type:depth-idx)                   Output Shape              Param #\n",
-       "==========================================================================================\n",
-       "Sequential                               --                        --\n",
-       "Sequential: 1-1                        [32, 64, 56, 56]          --\n",
-       "    Conv2d: 2-1                       [32, 64, 112, 112]        9,472\n",
-       "    BatchNorm2d: 2-2                  [32, 64, 112, 112]        128\n",
-       "    ReLU: 2-3                         [32, 64, 112, 112]        --\n",
-       "    MaxPool2d: 2-4                    [32, 64, 56, 56]          --\n",
-       "Sequential: 1-2                        [32, 64, 56, 56]          --\n",
-       "    Residual: 2-5                     [32, 64, 56, 56]          --\n",
-       "        Conv2d: 3-1                  [32, 64, 56, 56]          36,928\n",
-       "        BatchNorm2d: 3-2             [32, 64, 56, 56]          128\n",
-       "        Conv2d: 3-3                  [32, 64, 56, 56]          36,928\n",
-       "        BatchNorm2d: 3-4             [32, 64, 56, 56]          128\n",
-       "    Residual: 2-6                     [32, 64, 56, 56]          --\n",
-       "        Conv2d: 3-5                  [32, 64, 56, 56]          36,928\n",
-       "        BatchNorm2d: 3-6             [32, 64, 56, 56]          128\n",
-       "        Conv2d: 3-7                  [32, 64, 56, 56]          36,928\n",
-       "        BatchNorm2d: 3-8             [32, 64, 56, 56]          128\n",
-       "Sequential: 1-3                        [32, 128, 28, 28]         --\n",
-       "    Residual: 2-7                     [32, 128, 28, 28]         --\n",
-       "        Conv2d: 3-9                  [32, 128, 28, 28]         73,856\n",
-       "        BatchNorm2d: 3-10            [32, 128, 28, 28]         256\n",
-       "        Conv2d: 3-11                 [32, 128, 28, 28]         147,584\n",
-       "        BatchNorm2d: 3-12            [32, 128, 28, 28]         256\n",
-       "        Conv2d: 3-13                 [32, 128, 28, 28]         8,320\n",
-       "    Residual: 2-8                     [32, 128, 28, 28]         --\n",
-       "        Conv2d: 3-14                 [32, 128, 28, 28]         147,584\n",
-       "        BatchNorm2d: 3-15            [32, 128, 28, 28]         256\n",
-       "        Conv2d: 3-16                 [32, 128, 28, 28]         147,584\n",
-       "        BatchNorm2d: 3-17            [32, 128, 28, 28]         256\n",
-       "Sequential: 1-4                        [32, 256, 14, 14]         --\n",
-       "    Residual: 2-9                     [32, 256, 14, 14]         --\n",
-       "        Conv2d: 3-18                 [32, 256, 14, 14]         295,168\n",
-       "        BatchNorm2d: 3-19            [32, 256, 14, 14]         512\n",
-       "        Conv2d: 3-20                 [32, 256, 14, 14]         590,080\n",
-       "        BatchNorm2d: 3-21            [32, 256, 14, 14]         512\n",
-       "        Conv2d: 3-22                 [32, 256, 14, 14]         33,024\n",
-       "    Residual: 2-10                    [32, 256, 14, 14]         --\n",
-       "        Conv2d: 3-23                 [32, 256, 14, 14]         590,080\n",
-       "        BatchNorm2d: 3-24            [32, 256, 14, 14]         512\n",
-       "        Conv2d: 3-25                 [32, 256, 14, 14]         590,080\n",
-       "        BatchNorm2d: 3-26            [32, 256, 14, 14]         512\n",
-       "Sequential: 1-5                        [32, 512, 7, 7]           --\n",
-       "    Residual: 2-11                    [32, 512, 7, 7]           --\n",
-       "        Conv2d: 3-27                 [32, 512, 7, 7]           1,180,160\n",
-       "        BatchNorm2d: 3-28            [32, 512, 7, 7]           1,024\n",
-       "        Conv2d: 3-29                 [32, 512, 7, 7]           2,359,808\n",
-       "        BatchNorm2d: 3-30            [32, 512, 7, 7]           1,024\n",
-       "        Conv2d: 3-31                 [32, 512, 7, 7]           131,584\n",
-       "    Residual: 2-12                    [32, 512, 7, 7]           --\n",
-       "        Conv2d: 3-32                 [32, 512, 7, 7]           2,359,808\n",
-       "        BatchNorm2d: 3-33            [32, 512, 7, 7]           1,024\n",
-       "        Conv2d: 3-34                 [32, 512, 7, 7]           2,359,808\n",
-       "        BatchNorm2d: 3-35            [32, 512, 7, 7]           1,024\n",
-       "AdaptiveAvgPool2d: 1-6                 [32, 512, 1, 1]           --\n",
-       "Flatten: 1-7                           [32, 512]                 --\n",
-       "Linear: 1-8                            [32, 10]                  5,130\n",
-       "==========================================================================================\n",
-       "Total params: 11,184,650\n",
-       "Trainable params: 11,184,650\n",
-       "Non-trainable params: 0\n",
-       "Total mult-adds (G): 58.11\n",
-       "==========================================================================================\n",
-       "Input size (MB): 19.27\n",
…
-   ]
-  },
-  {
-   "cell_type": "code",
-   "execution_count": 4,
-   "id": "1e4f5f6f",
-   "metadata": {},
-   "outputs": [
-    {
-     "data": {
-      "text/plain": [
-       "==========================================================================================\n",
-       "Layer (type:depth-idx)                   Output Shape              Param #\n",
-       "==========================================================================================\n",
-       "Sequential                               --                        --\n",
-       "Conv2d: 1-1                            [32, 64, 112, 112]        3,200\n",
-       "ReLU: 1-2                              [32, 64, 112, 112]        --\n",
-       "MaxPool2d: 1-3                         [32, 64, 56, 56]          --\n",
-       "Conv2d: 1-4                            [32, 64, 56, 56]          4,160\n",
-       "ReLU: 1-5                              [32, 64, 56, 56]          --\n",
-       "Conv2d: 1-6                            [32, 192, 56, 56]         110,784\n",
-       "ReLU: 1-7                              [32, 192, 56, 56]         --\n",
-       "MaxPool2d: 1-8                         [32, 192, 28, 28]         --\n",
-       "Inception: 1-9                         [32, 256, 28, 28]         --\n",
-       "    Conv2d: 2-1                       [32, 64, 28, 28]          12,352\n",
-       "    Conv2d: 2-2                       [32, 96, 28, 28]          18,528\n",
-       "    Conv2d: 2-3                       [32, 128, 28, 28]         110,720\n",
-       "    Conv2d: 2-4                       [32, 16, 28, 28]          3,088\n",
-       "    Conv2d: 2-5                       [32, 32, 28, 28]          12,832\n",
-       "    MaxPool2d: 2-6                    [32, 192, 28, 28]         --\n",
-       "    Conv2d: 2-7                       [32, 32, 28, 28]          6,176\n",
-       "Inception: 1-10                        [32, 480, 28, 28]         --\n",
-       "    Conv2d: 2-8                       [32, 128, 28, 28]         32,896\n",
-       "    Conv2d: 2-9                       [32, 128, 28, 28]         32,896\n",
-       "    Conv2d: 2-10                      [32, 192, 28, 28]         221,376\n",
-       "    Conv2d: 2-11                      [32, 32, 28, 28]          8,224\n",
-       "    Conv2d: 2-12                      [32, 96, 28, 28]          76,896\n",
-       "    MaxPool2d: 2-13                   [32, 256, 28, 28]         --\n",
-       "    Conv2d: 2-14                      [32, 64, 28, 28]          16,448\n",
-       "MaxPool2d: 1-11                        [32, 480, 14, 14]         --\n",
-       "==========================================================================================\n",
-       "Total params: 670,576\n",
-       "Trainable params: 670,576\n",
-       "Non-trainable params: 0\n",
-       "Total mult-adds (G): 26.68\n",
-       "==========================================================================================\n",
-       "Input size (MB): 6.42\n",
-       "Forward/backward pass size (MB): 613.35\n",
…
